app/src/main/ml/lite_SFDNet_model.tflite (tflite, 925996 bytes, 14 tensors)

SFDNet/Conv_1/BiasAdd/ReadVariableOp f4 [32]
0	0x3dc668a3	0.096879266
1	0xbdc812f2	-0.097692385
2	0xbd8206d1	-0.063489564
3	0xbe023d83	-0.12718777
4	0xbdefc035	-0.117065825
5	0xbdab4efb	-0.08364674
6	0xba7a1bcd	-0.0009540886
7	0x3d0bd249	0.03413609
8	0xbc7154f8	-0.014729731
9	0xbe2e76f1	-0.1703756
10	0x3c9ea114	0.019363917
11	0x3d010f1a	0.031508543
12	0xbd365311	-0.044512812
13	0xbe039d67	-0.12853013
14	0xbe2c0d45	-0.16801937
15	0x3ca56325	0.020188877
16	0x3d9c472c	0.076307625
17	0xba69321c	-0.00088957115
18	0x3d0ec7e4	0.0348586
19	0x3c797997	0.015226743
20	0x3bcb5b7f	0.0062059755
21	0xbdfcbf30	-0.123411536
22	0xba5b5530	-0.0008366881
23	0x3d16e3a1	0.036838178
24	0xbe1f01af	-0.15527986
25	0x3cc29dc8	0.023756877
26	0xbcccb89f	-0.024990378
27	0x3d67c496	0.056583963
28	0x3db6cb56	0.08925502
29	0x3ddf2562	0.10895802
30	0xbd254b97	-0.04035529
31	0xbcea5f58	-0.028609917

SFDNet/Conv_2/BiasAdd/ReadVariableOp f4 [32]
0	0xbd143722	-0.03618539
1	0xbd4e1b6b	-0.050319117
2	0xbd5e7d3b	-0.054318648
3	0xbd49fe70	-0.049314916
4	0xbda91ac7	-0.082570605
5	0xbc0e1cee	-0.00867389
6	0xbe0b2f31	-0.13592221
7	0x3da1df31	0.079038985
8	0xbd04f875	-0.03246351
9	0xbc892f7b	-0.016746273
10	0xbd8f6391	-0.07001413
11	0xbd9fb5b5	-0.0779833
12	0x3aaf9536	0.0013395909
13	0xbe1efa96	-0.15525278
14	0xbd59fa8f	-0.053217467
15	0xbc1ec0e9	-0.009689548
16	0xbc59b7b9	-0.013288432
17	0xbce43c11	-0.027860673
18	0xbd1f254b	-0.038853925
19	0x3c95578c	0.018230222
20	0xbd9f69a9	-0.07783825
21	0x3d7f5685	0.06233837
22	0xbb1d75c8	-0.0024026502
23	0x3d7c502f	0.061599907
24	0xbd943ef4	-0.0723857
25	0xbd317f1b	-0.043334108
26	0xbc941bbd	-0.018079633
27	0x3d1750b1	0.036942188
28	0xbd4ea4b1	-0.05045003
29	0xbced0a14	-0.02893547
30	0x3c74f68f	0.014951362
31	0xbdf06206	-0.117374465

SFDNet/Conv_3/BiasAdd/ReadVariableOp f4 [64]
0	0xbe24657c	-0.16054338
1	0xbd91c826	-0.071182534
2	0xbd7d72b1	-0.061876956
3	0xbcef8cce	-0.029241946
4	0xbd01cc75	-0.031689126
5	0xbd6d65db	-0.057958465
6	0x3c1880bb	0.0093080355
7	0xbcfbc112	-0.030731712
8	0x3dd28c7a	0.102807
9	0xbd49998b	-0.049218696
10	0xbcedd1e8	-0.029030755
11	0xbd0da8c0	-0.03458476
12	0xbe22095e	-0.15823886
13	0xbd1ab197	-0.03776702
14	0xbcaeb7fd	-0.021327967
15	0xbd4d5f27	-0.050139572
16	0xbd72a209	-0.05923656
17	0x3d7a1825	0.061058182
18	0x3cffb4ee	0.031214204
19	0xbd112713	-0.035437655
20	0xbda8f31b	-0.08249494
21	0xb8810a85	-6.153159e-05
22	0xb915e87e	-0.00014296357
23	0xbd187f9a	-0.037231065
24	0xbd7365b2	-0.059423156
25	0xbd8a23c3	-0.06745102
26	0xbd301d59	-0.042996738
27	0xbc752441	-0.014962257
28	0x3cb66e61	0.02226943
29	0xbb757de7	-0.0037459077
30	0xbdbaf14a	-0.091280535
31	0xbdb19bd3	-0.08672299
32	0xbde59455	-0.11209933
33	0xbde40eec	-0.111356586
34	0xbdb25202	-0.08707048
35	0xbe2dc2f1	-0.16968895
36	0xbd41e172	-0.047334142
37	0x3c59099a	0.013246918
38	0xbd14c724	-0.036322728
39	0x3da55d6a	0.08074458
40	0x3d7b78e8	0.061394602
41	0xbce143f9	-0.027498232
42	0xbdc4dccb	-0.096124254
43	0xbda1d309	-0.0790158
44	0x3cf40d0e	0.029791381
45	0xbdd96022	-0.10614039
46	0xbe2dda99	-0.1697792
47	0x3dc06298	0.09393805
48	0xbbb2bc0b	-0.0054545454
49	0xbd8e2387	-0.0694037
50	0xbdc91cb6	-0.09819929
51	0xbd5148cf	-0.051094826
52	0xbd4ac5df	-0.04950511
53	0xbd2314e4	-0.039814845
54	0xbda1b42c	-0.07895693
55	0xbd16ed55	-0.03684743
56	0xbdc7317d	-0.09726236
57	0xbd6313b4	-0.055438712
58	0xbd8424f4	-0.06452361
59	0x3d6c8c44	0.057750955
60	0xbdd6ad14	-0.10482231
61	0xbd92a4a0	-0.07160306
62	0xbe3334cb	-0.17500608
63	0xbce02165	-0.027359674

SFDNet/Conv_4/BiasAdd/ReadVariableOp f4 [64]
0	0xbdb069d9	-0.08613939
1	0xbc91b4b4	-0.017786361
2	0xbdf55780	-0.1197958
3	0xbdfd2ea0	-0.12362409
4	0xbc7e045d	-0.01550397
5	0xbc061e16	-0.008185884
6	0xbd908610	-0.070568204
7	0xbd7f512a	-0.062333263
8	0xbd402142	-0.046906717
9	0xbd0be080	-0.034149647
10	0xbe03e9fc	-0.12882227
11	0xbd049da0	-0.032376885
12	0xbd1f0905	-0.03882696
13	0xbe31ee27	-0.17376004
14	0xbce62e90	-0.028098375
15	0xbd1490ee	-0.03627103
16	0xbd934efc	-0.071927994
17	0xbde5844c	-0.11206874
18	0xbd4aa633	-0.049474906
19	0xbde0b6ce	-0.10972367
20	0x3b32df06	0.0027293577
21	0xbdc0e18d	-0.094180204
22	0xbc40826e	-0.011749847
23	0x3e36c582	0.17848781
24	0xbcebbdff	-0.02877712
25	0x3cbb4b2d	0.022862995
26	0xbc827a0e	-0.01592734
27	0xbd40979f	-0.047019597
28	0xbdd3fd2b	-0.10351022
29	0xbdbcd59a	-0.09220429
30	0x3d8422d2	0.06451954
31	0xbca54a42	-0.02017701
32	0x3c3e1e95	0.011603971
33	0xbd8e7172	-0.06955232
34	0xbe1852c5	-0.14875324
35	0xbd5aa283	-0.05337764
36	0xbc78cd1b	-0.01518562
37	0x3d47438e	0.04864841
38	0xbd81c847	-0.06337028
39	0xbd96f7e7	-0.07371502
40	0x3c08ee43	0.008357587
41	0xbd0a944c	-0.033832833
42	0x3e375c51	0.1790631
43	0xbbf3e689	-0.0074432534
44	0xbd8b533d	-0.06802986
45	0xbdb8375d	-0.08994935
46	0x3daff5cc	0.08591804
47	0xbce245a6	-0.027621102
48	0xbcf7bfff	-0.030242918
49	0xbd13faf1	-0.03612799
50	0xbc0d9c43	-0.008643213
51	0xbdcb6bc7	-0.09932666
52	0x3dc3969d	0.095502116
53	0xbd0e021a	-0.034669973
54	0xbdba8a83	-0.0910845
55	0xbca83637	-0.020533664
56	0xbc79e844	-0.01525313
57	0xbe0c4951	-0.13699843
58	0xbdb24dcc	-0.08706245
59	0xbd7c6d0a	-0.061627425
60	0xbdadfd87	-0.08495622
61	0xbc291220	-0.010319263
62	0xbc72e5cd	-0.014825297
63	0xbdc68c33	-0.0969471

SFDNet/Dense_2/MatMul;SFDNet/Dense_2/Relu;SFDNet/Dense_2/BiasAdd f4 [64]
0	0x3f7aa145	0.9790233
1	0x3fcb2f85	1.5873877
2	0x3f35f430	0.71075726
3	0x3fed06b3	1.851767
4	0xbf0fcd87	-0.56172985
5	0x3f4a952e	0.7913388
6	0x3f23c479	0.6397167
7	0xbfa2debd	-1.2724224
8	0xbf4fa94f	-0.8111772
9	0x3f432d91	0.76241404
10	0x3f471cb1	0.77778155
11	0x3fb6ec30	1.4290829
12	0x3fffffbc	1.9999919
13	0xbea62020	-0.32446384
14	0x3f625788	0.8841481
15	0x40041406	2.0637221
16	0x3ed9b726	0.42522544
17	0x3fea3df3	1.8300155
18	0x3f1baa08	0.6080632
19	0x3e9b8ddd	0.3038167
20	0xbfa44b58	-1.2835493
21	0x3ffc5ead	1.9716393
22	0x3e9c2bbf	0.30502126
23	0x3fac6047	1.3466882
24	0xbe98d3b2	-0.2984901
25	0x3fa49585	1.285813
26	0x3ffd5397	1.9791135
27	0x3ff0bbe7	1.8807343
28	0x3f56390a	0.83680785
29	0x3f84b7ea	1.0368626
30	0x3f4816e9	0.7815996
31	0x3e904c32	0.28183132
32	0xbf991455	-1.195933
33	0x3f2b92c0	0.670208
34	0x3f6aa753	0.91661566
35	0x3f630154	0.886739
36	0x3fb2e35c	1.3975635
37	0x3ebf2bee	0.37338203
38	0xbe4b7694	-0.19869453
39	0x3e7ebb2b	0.24876086
40	0x3f728dec	0.94747806
41	0xbf42cd74	-0.76094747
42	0x3dc92dcb	0.098231874
43	0x3f9a7e2c	1.2069755
44	0x3e433e8f	0.19066833
45	0x3fe9a07b	1.82521
46	0x3f0f1c13	0.5590221
47	0x3f1f315a	0.6218468
48	0xbf735138	-0.95045805
49	0x40025f79	2.0370772
50	0x3fa3a1e9	1.2783786
51	0x3f1cf9ff	0.61318964
52	0x3f94299b	1.1575197
53	0x3f650830	0.8946562
54	0xbe2b12c8	-0.16706383
55	0xbf289bd2	-0.6586276
56	0x3f9f7cde	1.2459981
57	0x3e41d543	0.18929009
58	0xbf0d1d76	-0.5512308
59	0x3f86febd	1.054649
60	0x3f1e6084	0.6186602
61	0xbd9a875e	-0.075453505
62	0x3fa0b83f	1.2556227
63	0x40047dbf	2.070175

SFDNet/batch_normalization_2/batchnorm/mul_1;SFDNet/batch_normalization_2/batchnorm/add_1;SFDNet/Dense_2/MatMul;SFDNet/Dense_2/Relu;SFDNet/Dense_2/BiasAdd f4 [64, 256]
0	0xbdc05d30	-0.09392774
1	0xbfa81b9e	-1.3133428
2	0x3faa1f50	1.3290806
3	0x3e543476	0.20723137
4	0x3e24cc62	0.16093591
5	0xc0068314	-2.1017504
6	0xc0726ebb	-3.7880085
7	0x3f7d2e2c	0.9889858
8	0x4094d793	4.651315
9	0x40346bc1	2.8190768
10	0x3d069874	0.032860234
11	0xbf72d262	-0.9485227
12	0xbef2e695	-0.47441545
13	0x3e87de0a	0.2653659
14	0xc086a6d8	-4.2078667
15	0x3e28add4	0.1647256
16	0xc0075d31	-2.115063
17	0x402da885	2.7134106
18	0x3f9d0310	1.226656
19	0xbf3f08bb	-0.74622697
20	0xbe1a8152	-0.15088394
21	0xbf40ffe9	-0.7539049
22	0x3e57cf59	0.2107519
23	0xbd4f9bda	-0.05068574
24	0x3eee1a71	0.46504548
25	0xbe1b0299	-0.1513771
26	0xbd59def4	-0.05319114
27	0x3db5c4e5	0.08875445
28	0xbf17d70f	-0.5931253
29	0xbe91a916	-0.28449315
30	0xbf49978f	-0.78746885
31	0xbf8fb571	-1.1227247
32	0x3dde1ef0	0.108457446
33	0xbdebf719	-0.115217395
34	0xc0301e01	-2.7518313
35	0xc0075248	-2.114397
36	0xbda59c2c	-0.08086428
37	0x403152c6	2.770677
38	0x3dbcff99	0.09228439
39	0xbf58d90f	-0.84706205
40	0xbd0b9386	-0.034076236
41	0xc04a33ba	-3.1594071
42	0xbef30431	-0.47464135
43	0x3e8a7d39	0.27048662
44	0xc022facc	-2.5465574
45	0xbf367f4b	-0.71287984
46	0xbf4e1335	-0.8049806
47	0xc024b233	-2.5733764
48	0xbdbd7120	-0.092500925
49	0x403fbf40	2.996048
50	0x3e65148a	0.22371116
51	0x3f59909b	0.84986275
52	0xbede068f	-0.4336438
53	0xbe2aaf3f	-0.16668414
54	0x3ed0bdf3	0.4076992
55	0x3f055630	0.52084637
56	0xbf940fec	-1.1567359
57	0xbf05a9f2	-0.5221244
58	0x4023241d	2.5490792
59	0x3fbe6886	1.4875648
60	0xbd887294	-0.06662479
61	0x3ec42308	0.38307977
62	0xbf06a497	-0.52594894
63	0x3ee2598b	0.4420894
64	0x3e9f0790	0.31060457
65	0xbf3bc6ed	-0.7335041
66	0x40c21d4b	6.066076
67	0xbebffaf8	-0.3749616
68	0xbfdc0ba5	-1.7191054
69	0xbf00fdb9	-0.5038715
70	0x4087ae33	4.2400146
71	0x3f94de89	1.1630412
72	0x3f5d4759	0.8643699
73	0xbdd1be38	-0.102413595
74	0x3ed7f0c0	0.42175865
75	0x3f48a2d8	0.7837348
76	0xbf314946	-0.6925243
77	0x3ca23509	0.01980068
78	0xbf616298	-0.8804107
79	0xc03546e9	-2.832453
80	0x3d6a76db	0.057242256
81	0xbdb0218e	-0.0860015
82	0x3dc8dc30	0.098076224
83	0xbe617f73	-0.22021274
84	0x3e1bed5e	0.15227267
85	0x3e09db89	0.13462652
86	0xbf199c98	-0.6000457
87	0xbe2c5d92	-0.16832569
88	0x3e9c0140	0.30469704
89	0xbebf139b	-0.37319645
90	0xbfca055b	-1.5782884
91	0x3dc3c158	0.09558362
92	0xbfc3edc7	-1.5306939
93	0xbe65a9c1	-0.22428037
94	0x40667067	3.6006105
95	0xbe32a17a	-0.17444411
96	0x403e248b	2.9709804
97	0xbf90181d	-1.1257359
98	0xc0682827	-3.6274507
99	0x40135f96	2.302709
100	0x3f004585	0.5010608
101	0xbd0eb075	-0.03483625
102	0x407e37ab	3.9721477
103	0xbf1bd8ad	-0.60877496
104	0xbf9776d6	-1.1833141
105	0xbe1033c9	-0.14082254
106	0xbfe80ea9	-1.8129474
107	0xc00abd92	-2.1678205
108	0x3f880c30	1.0628719
109	0xbc68e827	-0.014215506
110	0xc074921b	-3.8214176
111	0x3ed3c8e8	0.41364217
112	0x403ba576	2.931974
113	0xbd737ba4	-0.059444085
114	0x3e221c04	0.15831
115	0x3e25cccb	0.16191404
116	0xc08d22db	-4.410505
117	0x3c25aaaa	0.01011149
118	0xbf3e0dd0	-0.74239826
119	0x3f56ff83	0.8398363
120	0xbe886307	-0.26638052
121	0xbf63a8c7	-0.8892941
122	0xbe7ba941	-0.24576284
123	0x3d31f3df	0.043445464
124	0x3fa3d6e4	1.2799954
125	0xbed5e6bb	-0.41777596
126	0xc07b95f2	-3.931027
127	0xbf502629	-0.8130823
128	0x40811a8f	4.034492
129	0x3fd7cf0c	1.6860061
130	0xbfa80c44	-1.3128743
131	0x3eab809b	0.33496556
132	0x3f9f6389	1.2452251
133	0xc05cd30b	-3.450381
134	0xbeb1fce1	-0.34763244
135	0x3d20d96e	0.039269857
136	0xbf2d9f65	-0.6782134
137	0xbe686013	-0.226929
138	0x3c4e4203	0.012588981
139	0x3a944a04	0.0011313562
140	0xc09eed15	-4.9664407
141	0xbe9dce5a	-0.30821496
142	0x3d2716da	0.040793277
143	0x3d9e6345	0.07733778
144	0xbe9025db	-0.2815388
145	0xbf8d48c0	-1.1037827
146	0x3f0aa76e	0.5416173
147	0xc01c632a	-2.4435525
148	0x3ea0c393	0.3139921
149	0x40acf346	5.4046965
150	0xc0552845	-3.3305829
151	0xc010a4ec	-2.260066
152	0xbf1bdb6a	-0.60881674
153	0xbe92a63d	-0.28642455
154	0xbf994b87	-1.1976174
155	0x3f59b1e9	0.85037094
156	0xbe2e8847	-0.17044173
157	0xbeeb5bdb	-0.45968518
158	0xbe872ea8	-0.26402783
159	0x40456c5f	3.0847394
160	0xbff06ef9	-1.8783866
161	0xbdd3cd5d	-0.10341904
162	0x3e5b134b	0.21394078
163	0x3d573e03	0.052549373
164	0xbe2eb157	-0.17059837
165	0xbdd03f60	-0.10168338
166	0x3eb6884b	0.35650858
167	0x3f1298a8	0.57264185
168	0xbfb4b589	-1.41179
169	0x3d9a2507	0.07526594
170	0xbe83acd7	-0.25717804
171	0xbda75ec8	-0.08172375
172	0x3ecf1c71	0.40451387
173	0x3f1db359	0.6160179
174	0x4018617c	2.38095
175	0xbe4063da	-0.1878809
176	0xbd4deadd	-0.05027281
177	0x3d6b1f56	0.05740293
178	0xc0311a8c	-2.7672453
179	0x3dbaa1b1	0.091128714
180	0x3cdbca90	0.026829988
181	0xbe709c5c	-0.23497146
182	0x3fc0941c	1.5045199
183	0xbc6a596c	-0.014303546
184	0x3d24df91	0.040252272
185	0xbcafaa66	-0.021443557
186	0xbf8047ba	-1.0021889
187	0x3e573164	0.21014935
188	0xbe47baa5	-0.19504793
189	0x4036da7f	2.857086
190	0xc02542ff	-2.582214
191	0xc015ddf3	-2.3416717
192	0xbedfe68b	-0.43730578
193	0xbfde4d03	-1.7367252
194	0xbd49e7ff	-0.049293514
195	0xbf94e5fb	-1.1632684
196	0x3f83a617	1.0285062
197	0x408de712	4.434457
198	0xbe903a23	-0.28169355
199	0x404cc945	3.1997845
200	0xc00de9a6	-2.2173858
201	0x3ff50e93	1.9145073
202	0xbeaa0be1	-0.33212188
203	0x3e7dbd01	0.2477913
204	0xbf413325	-0.75468665
205	0xbf9ca413	-1.2237571
206	0xbfce990d	-1.6140457
207	0xbc67d7a7	-0.014150537
208	0xbe2dfea5	-0.1699167
209	0x3e555c27	0.20835935
210	0xc07e4d78	-3.9734783
211	0xbceea6a0	-0.029132187
212	0xbd90ca68	-0.07069856
213	0x3c97b2ff	0.01851797
214	0x3e0b4372	0.13599947
215	0xbff43142	-1.9077532
216	0xbe59ee35	-0.21282275
217	0x4093200e	4.597663
218	0xbf01b12e	-0.5066098
219	0xbd2a7458	-0.04161486
220	0x401cda2d	2.4508164
221	0xbf7f5f25	-0.99754554
222	0x4018826c	2.3829603
223	0x3d778be2	0.060436137
224	0x3eca896b	0.39557967
225	0xbe0ec9d6	-0.13944182
226	0xc0892d6f	-4.286796
227	0xc04350c4	-3.0518045
228	0xbf0da976	-0.553367
229	0xbede2470	-0.43387175
230	0x3e99ec0b	0.300629
231	0x4041816b	3.023524
232	0xbceaaff6	-0.028648358
233	0x3e9f2887	0.31085607
234	0xc04582d9	-3.0861113
235	0xbe3d8e3a	-0.18511286
236	0x3fc7b7af	1.5602931
237	0x404f03f5	3.2346165
238	0x401fa3e8	2.494379
239	0x3d91de44	0.07122472
240	0x3ff31b0b	1.8992628
241	0xbf91a74c	-1.137918
242	0x3de83391	0.113379605
243	0x3eaa050f	0.33206984
244	0x3dc777f8	0.09739679
245	0x3e225063	0.15850978
246	0xbfd899c3	-1.6921924
247	0x409bffb6	4.8749647
248	0xbf7e6650	-0.99374866
249	0xbdbda2fe	-0.09259604
250	0xbdcd85c4	-0.100352794
251	0x3f630189	0.8867422
252	0xbd9145e5	-0.070934094
253	0x3d6cbe04	0.0577984
254	0xc09345e5	-4.602282
255	0xbf3c18bf	-0.7347526

SFDNet/Dense_Output/MatMul;SFDNet/Dense_Output/BiasAdd f4 [6]
0	0x3f9f1026	1.2426803
1	0x3f16ca04	0.58902
2	0xbf45276f	-0.77013296
3	0x3f2ab7ef	0.6668691
4	0x3f128a59	0.5724235
5	0xbdcc3b7c	-0.09972283

SFDNet/batch_normalization_3/batchnorm/mul_1;SFDNet/batch_normalization_3/batchnorm/add_1;SFDNet/Dense_Output/MatMul;SFDNet/Dense_Output/BiasAdd f4 [6, 64]
0	0xbe8c973b	-0.2745913
1	0xbe7aa87c	-0.24478334
2	0x3e00eed2	0.12591103
3	0xbe699d7b	-0.2281398
4	0xbe7e76eb	-0.24850051
5	0x3df4ee4b	0.11959513
6	0x3ec1fcb7	0.3788812
7	0xbe1ebb99	-0.1550125
8	0xbc8a1a6a	-0.016858298
9	0x3debc43d	0.11512039
10	0x3e9496c9	0.2902129
11	0x3efa5f47	0.48900816
12	0x3e899dc3	0.26878175
13	0xbd9f4615	-0.07777039
14	0xbe95c64b	-0.29252848
15	0x3e3844df	0.17995022
16	0x3e17901f	0.14801072
17	0x3e073e5a	0.13207379
18	0x3c4d64e9	0.012536266
19	0x3effa5c5	0.4993116
20	0xbdafaa90	-0.08577454
21	0x3e92d92a	0.28681308
22	0xbe5da2f5	-0.21644194
23	0x3e56dc22	0.20982412
24	0xbe2546c1	-0.16140272
25	0x3e6936d3	0.2277482
26	0x3e60fdf9	0.21971883
27	0xbdca3829	-0.09873993
28	0xbe33067c	-0.17482942
29	0x3e988f6f	0.2979693
30	0xbe998c85	-0.2999002
31	0xbe14d29e	-0.14533469
32	0xbd3348e7	-0.043770697
33	0xbd170c10	-0.036876738
34	0xbe64a6af	-0.2232921
35	0xbea0e3cb	-0.31423792
36	0xbe5e3506	-0.21699914
37	0xbe9d0741	-0.30669597
38	0xbe10c04f	-0.1413586
39	0x3e3a645b	0.18202345
40	0x3e10b0f0	0.14129996
41	0x3df67b49	0.120352335
42	0xbdd7116f	-0.10501372
43	0xbe565462	-0.20930627
44	0x3c4ba386	0.012429124
45	0x3d9e7b1e	0.077383265
46	0xbe404181	-0.18774988
47	0x3d9faba0	0.07796407
48	0x3cbb5ec0	0.022872329
49	0xbd533477	-0.051563706
50	0xbdd90e1c	-0.10598394
51	0xbcd08ef6	-0.025458794
52	0x3b9139cd	0.004431939
53	0x3e0a6aa7	0.13517247
54	0xbe8058ae	-0.25067657
55	0xbc38d771	-0.011281834
56	0xbd811048	-0.063019335
57	0xbe4df112	-0.20111492
58	0xbd961236	-0.07327692
59	0xbd957c92	-0.072991505
60	0x3e2394e2	0.15974763
61	0xbe86fecf	-0.2636628
62	0xbe28bc0d	-0.16477986
63	0x3e0437e4	0.12911946
64	0xbeb976ca	-0.3622344
65	0x3e4c22ad	0.19935103
66	0xbe26d55a	-0.16292325
67	0x3e41fe4e	0.18944666
68	0x3e23ea62	0.16007379
69	0xbe2bf0dd	-0.16791101
70	0xbe6c7056	-0.23089728
71	0x3aa5ebe2	0.00126588
72	0xbe5da0fa	-0.21643439
73	0xbdc33632	-0.09531821
74	0xbe0be3bd	-0.13661094
75	0x3d6d1fff	0.057891842
76	0x3e499ee3	0.19689517
77	0xbda4f5ba	-0.08054681
78	0x3d2a3003	0.041549694
79	0x3e740061	0.2382827
80	0xbe6ff8c7	-0.23434745
81	0x3dbe21f0	0.09283817
82	0x3e792745	0.24331386
83	0xbe1615fa	-0.14656821
84	0xbd9192a8	-0.071080506
85	0xbec8fb4a	-0.39254218
86	0x3e7e4278	0.24830043
87	0x3e91cc17	0.2847602
88	0xbe2e26b5	-0.17006953
89	0x3e84b8e5	0.25922313
90	0x3e23b1af	0.1598575
91	0xbeca5b90	-0.39522982
92	0x3ec9cbf8	0.39413428
93	0x3e85f013	0.26159725
94	0x3da583af	0.08081757
95	0x3e3e84f2	0.18605402
96	0xbed07b59	-0.40719107
97	0x3e85c67a	0.26127988
98	0x3e85a171	0.26099733
99	0x3b717042	0.0036840593
100	0xbe568d3f	-0.20952319
101	0x3e3d10e1	0.1846347
102	0xbd30b010	-0.043136656
103	0xbdaa46d8	-0.083142936
104	0xbe8129df	-0.25227258
105	0xbe633c4c	-0.2219097
106	0x3e39d501	0.18147661
107	0x3e803324	0.25039017
108	0x3e6b0822	0.22952321
109	0x3e409661	0.18807365
110	0xbd338498	-0.043827623
111	0x3e7dd346	0.24787626
112	0xbe1b5684	-0.15169722
113	0x3de464d5	0.11152045
114	0xbd09d9bf	-0.033654924
115	0xbf18c0ba	-0.5966908
116	0x3d9abd19	0.07555599
117	0xbecf4f8e	-0.40490383
118	0x3c08b541	0.008343996
119	0xbe65ee6a	-0.22454229
120	0xbe859305	-0.2608873
121	0xbc375216	-0.011189004
122	0x3e22d58f	0.15901779
123	0xbe807efc	-0.2509688
124	0xbe2006e5	-0.1562763
125	0xbe25ffaf	-0.16210817
126	0x3e1e3504	0.15449911
127	0xbeb5cb23	-0.35506544
128	0x3e2f4d66	0.17119369
129	0x3e9c454d	0.30521622
130	0xbe6b198d	-0.22958966
131	0x3e741c04	0.23838812
132	0x3dcfdb53	0.10149255
133	0xbea19695	-0.31560197
134	0xbe90667b	-0.28203186
135	0xbe60edee	-0.21965763
136	0xbe24295d	-0.16031404
137	0xbb05f230	-0.0020438544
138	0xbeb96692	-0.36211067
139	0x3ef77d6d	0.4833788
140	0x3e992112	0.29908043
141	0xbdd75fc1	-0.105163105
142	0x3eb9128e	0.3614697
143	0x3dcaa769	0.09895212
144	0xbe2e3982	-0.17014125
145	0x3e6bac10	0.23014855
146	0xbdd9aaae	-0.10628258
147	0xbddd56be	-0.108075604
148	0xbe1457c2	-0.14486602
149	0x3ebf11b5	0.37318197
150	0xbdf722cc	-0.12067184
151	0xbe906509	-0.28202084
152	0xbdd7fb19	-0.1054594
153	0x3889e324	6.574977e-05
154	0xbd8a7bd3	-0.06761899
155	0x3e5dfaf1	0.21677758
156	0x3edbbf5e	0.4291944
157	0xbe792590	-0.24330735
158	0x3e6d1f0d	0.23156376
159	0xbe8a7938	-0.27045608
160	0xbd3a5d00	-0.045498848
161	0xbddca15f	-0.107729666
162	0x3e0a00cf	0.13476871
163	0x3e3dbd20	0.18529177
164	0x3de85ff4	0.113464266
165	0xbe64e512	-0.22353008
166	0xbd8a48b1	-0.06752146
167	0xbe8bf5b8	-0.27335906
168	0xbe7513da	-0.23933354
169	0x3d258857	0.040413227
170	0x3e0179bf	0.12644099
171	0x3e2b4fe5	0.16729696
172	0xbe308cd3	-0.1724122
173	0x3ea3315f	0.31873605
174	0x3e0dede2	0.13860276
175	0xbe270c10	-0.16313195
176	0xbe53531e	-0.20637175
177	0x3e171a7b	0.14756195
178	0x3dfe0957	0.12404125
179	0x3e922585	0.2854425
180	0xbedb8f33	-0.4288269
181	0x3eb14aa1	0.3462725
182	0x3e5bf933	0.2148178
183	0xbdae6875	-0.08516017
184	0x3d648faa	0.05580107
185	0xbdbc6aef	-0.092000835
186	0xbe497f95	-0.19677575
187	0x3e9b41a7	0.30323526
188	0x3e195339	0.14973153
189	0xbe1f6195	-0.15564568
190	0x3e3ee48a	0.18641868
191	0x3e0814fa	0.13289252
192	0xbc126d29	-0.008937159
193	0x3e42343f	0.18965243
194	0x3e203a42	0.15647224
195	0x3ea444fd	0.32083884
196	0xbe42db93	-0.19029073
197	0x3e44067f	0.19143103
198	0x3e9e9971	0.30976442
199	0xbe219789	-0.15780462
200	0xbe4da1ca	-0.20081249
201	0xbecd57ff	-0.40106198
202	0x3e78cbff	0.24296568
203	0xbec24d5d	-0.37949648
204	0xbe695c84	-0.22789198
205	0x3d7f9a1e	0.062402837
206	0xbe555233	-0.20832138
207	0x3e5b6f02	0.21429065
208	0x3d6ef7f5	0.05834194
209	0xbe880c45	-0.2657186
210	0x3df5510e	0.119783506
211	0xbed42622	-0.41435343
212	0xbe0df93e	-0.1386461
213	0x3e6d5e53	0.23180513
214	0x3dc20e0e	0.09475337
215	0xbe4f16b0	-0.20223498
216	0x3e4b8d61	0.1987815
217	0xbe2338bd	-0.15939613
218	0x3b9b9a1e	0.004748597
219	0x3dd548ce	0.10414277
220	0xbe94c8bf	-0.29059407
221	0xbe2a7e4c	-0.16649741
222	0x3e3812b2	0.17975882
223	0x3e2a664c	0.16640586
224	0xbc366bc8	-0.0111340955
225	0xbe680359	-0.22657527
226	0xbe428af2	-0.18998316
227	0xbe6f1525	-0.2334791
228	0x3e4f8722	0.20266393
229	0xbcaaef15	-0.020865956
230	0x3e4c2401	0.1993561
231	0xbc41a063	-0.011818024
232	0xbd0651c8	-0.032792836
233	0xbe750c09	-0.23930372
234	0xbe0f1c8a	-0.1397573
235	0xbec13f2a	-0.37743503
236	0x3d4cb705	0.04997923
237	0x3ec81ab3	0.3908287
238	0xbd424cd5	-0.047436554
239	0xbe756a39	-0.23966302
240	0x3a7d2da6	0.0009657986
241	0xbef424ec	-0.4768442
242	0x3ce42de6	0.027853917
243	0xbecb772a	-0.39739352
244	0xbed6ffa2	-0.41991907
245	0xbe88039d	-0.26565257
246	0xbe811cee	-0.25217384
247	0x3e55073a	0.20803538
248	0x3e0d47f0	0.13796973
249	0x3e490ac5	0.19633015
250	0xbd5d1204	-0.05397226
251	0x3db06514	0.08613029
252	0x3dbf741a	0.093483165
253	0x3e44e07f	0.19226263
254	0x3e90229d	0.28151408
255	0x3df66570	0.120310664

SFDNet/Conv_1/Conv2D f4 [32, 3, 3, 3]
0	0xbea3aa1a	-0.31965715
1	0xbd076fbd	-0.033065546
2	0xbe3144a3	-0.17311339
3	0xbec6785f	-0.3876371
4	0xbd4178db	-0.047234397
5	0xbe0ca322	-0.13734105
6	0xbe0b517f	-0.13605307
7	0x3c375bc1	0.011191309
8	0x3de7f764	0.11326483
9	0xbdaf8420	-0.08570123
10	0x3c15ccee	0.009143097
11	0xbc3a9d52	-0.011390047
12	0xbe6eab5d	-0.23307557
13	0xbe0a35bf	-0.13497065
14	0xbdf3433e	-0.1187806
15	0xbe0e6510	-0.1390574
16	0x3dca2ac7	0.098714404
17	0xbb392d6a	-0.0028255829
18	0x3d9e16b0	0.07719171
19	0x3d06b8e3	0.032891165
20	0x3da3afd9	0.07992525
21	0x3dbc58db	0.09196635
22	0x3d29c5ae	0.041448288
23	0xbded1d0d	-0.115778066
24	0x3cdf0c10	0.027227432
25	0x3d4350a2	0.04768432
26	0x3e1e2cb0	0.15446734
27	0x3df0e9f4	0.11763373
28	0xbd97237d	-0.07379816
29	0xbde3b859	-0.11119146
30	0x3dc8b457	0.09800022
31	0x3dc314bb	0.095254384
32	0xbd751ca0	-0.059841752
33	0xbda1838a	-0.07886417
34	0x3dbb7157	0.09152477
35	0xbdeae056	-0.1146857
36	0xbcdf8af0	-0.02728793
37	0xbdc9b31d	-0.09848616
38	0x3db9ceb3	0.09072628
39	0xbd37e2b8	-0.04489395
40	0xbe0ec6e6	-0.13943061
41	0x3d8dd6c4	0.06925729
42	0x3dafbc99	0.08580894
43	0xbcc1bcb5	-0.023649553
44	0xbdba18d1	-0.090867646
45	0xbd9bac3b	-0.0760121
46	0x3dcd9cab	0.10039648
47	0xbd235713	-0.039877962
48	0x3defb777	0.11704915
49	0xbce52281	-0.027970554
50	0x3dc032b9	0.093846746
51	0xbd05eb18	-0.032694906
52	0xbdf446a2	-0.11927535
53	0x3e044aa2	0.12919095
54	0x3deebe08	0.11657339
55	0x3dcbe7ac	0.09956297
56	0xbc2154b7	-0.009846858
57	0x3c2f03da	0.010682071
58	0x3c913585	0.017725715
59	0xbdadfd76	-0.084956095
60	0xbce2713a	-0.027641881
61	0x3daa2d6b	0.08309444
62	0xbdd1ed2d	-0.10250316
63	0xbdf6dfab	-0.1205438
64	0x3ddbf00d	0.107391454
65	0xbdde157c	-0.108439416
66	0x3c622cd0	0.013804629
67	0x3ddf993a	0.109178975
68	0xbd97595c	-0.07390091
69	0x3d48dba1	0.04903758
70	0x3e2f054f	0.17091869
71	0xbd5265bb	-0.05136655
72	0x3c8b3b51	0.016996058
73	0xbc8c0fcb	-0.017097374
74	0xbba49412	-0.005022534
75	0xbd85a8dc	-0.06526348
76	0xbcd1e28f	-0.025620727
77	0xbe238c98	-0.15971601
78	0x3bd98078	0.006637629
79	0x3e0bd690	0.13656068
80	0xbd5a8a7d	-0.05335473
81	0xbd841683	-0.06449606
82	0x3e0c5e72	0.13707903
83	0xbd6e36ea	-0.05815784
84	0xbd4acf29	-0.04951397
85	0x3da0ac9c	0.078454226
86	0x3d4961ba	0.049165465
87	0xbced3b85	-0.028959045
88	0x3dd42d9e	0.10360263
89	0xbe383ba9	-0.17991509
90	0xbbc34cbb	-0.0059600747
91	0x3d901148	0.07034546
92	0x3cfd20db	0.030899456
93	0xbda28563	-0.07935598
94	0x3def4288	0.11682612
95	0x3d16a095	0.036774237
96	0x3dd50f72	0.104033366
97	0x3e10d6ea	0.14144483
98	0xbd8f1c51	-0.06987823
99	0xbdcc7962	-0.099840894
100	0x3d57824d	0.0526145
101	0xbe38ec8c	-0.18058985
102	0x3dc36a1f	0.09541725
103	0x3e1a4a67	0.15067445
104	0xbe4963cd	-0.19666977
105	0x3cdec5e4	0.027193971
106	0x3cb05e4f	0.021529345
107	0x3d0d0bc3	0.034435045
108	0xbd4dca0c	-0.050241515
109	0x3d2d430d	0.042300273
110	0xbdda6560	-0.10663867
111	0x3e45f63e	0.19332215
112	0xbd2181bd	-0.03943037
113	0xbda97bcf	-0.08275568
114	0x3d15976f	0.03652137
115	0xbd6c7b88	-0.057734996
116	0x3b52e5fa	0.0032180534
117	0x3e23dc6c	0.16002053
118	0xbd76be39	-0.060240004
119	0x3d245641	0.04012132
120	0x3e0f6cec	0.14006394
121	0xbdf462d1	-0.1193291
122	0xbc9348da	-0.017979074
123	0x3e2c527d	0.16828342
124	0x3d0a3fd7	0.03375229
125	0x3e017177	0.1264094
126	0xbd9d0be0	-0.076682806
127	0xbd581e8d	-0.05276351
128	0x3d96da9c	0.07365915
129	0xbbab4804	-0.005227091
130	0xbdbccb32	-0.09218444
131	0x3de126e0	0.10993743
132	0x3d8e8bec	0.06960282
133	0x3d0cd1d7	0.034379806
134	0xbd235b9e	-0.039882295
135	0xbd6ef33b	-0.05833743
136	0x3e1b8c80	0.15190315
137	0xbd706284	-0.0586877
138	0xbe49a8d1	-0.19693305
139	0x3d9f3901	0.077745445
140	0x3d6148d4	0.055001095
141	0xbdc35818	-0.09538287
142	0xbdbe0322	-0.09277941
143	0x3dee4bc8	0.11635548
144	0xbe46001e	-0.19335982
145	0x3d227ebe	0.039671652
146	0x3dcf6d50	0.101282716
147	0xbca71169	-0.020394044
148	0x3dcc7f75	0.09985248
149	0x3ddeccdb	0.10878917
150	0xbe1da79d	-0.1539597
151	0x3e25a98f	0.16177963
152	0x3d6af4a6	0.05736222
153	0xbe221a5f	-0.15830372
154	0x3d897218	0.06711215
155	0x3d45e909	0.048317943
156	0xbe45eff2	-0.19329813
157	0x3cffaca5	0.031210253
158	0xbca902b1	-0.020631166
159	0xbdb79450	-0.08963835
160	0x3e0483ae	0.12940857
161	0x3d58beba	0.052916266
162	0xbe484b6c	-0.19560021
163	0xbe665ced	-0.22496386
164	0xbe2ba798	-0.1676315
165	0xbd7e8d1f	-0.062146302
166	0xbd8c3e72	-0.06847848
167	0x3d913322	0.07089831
168	0x3e140f3a	0.14458933
169	0xbda708a0	-0.08155942
170	0x3e1bb4da	0.15205708
171	0xbd9c15bd	-0.07621334
172	0xbdff31ed	-0.124606945
173	0xbe3795b9	-0.17928208
174	0x3de83235	0.11337701
175	0x3da869a3	0.082232736
176	0xbbfbf346	-0.0076889126
177	0xbd0457c3	-0.03231026
178	0x3e437412	0.19087246
179	0x3da96035	0.08270303
180	0xbdbd5996	-0.09245603
181	0x3cdf7adf	0.02728027
182	0xbdc4800f	-0.09594738
183	0xbdbac782	-0.09120084
184	0x3cc7f57e	0.024409052
185	0x3e057edd	0.13036676
186	0x3de33c79	0.110955186
187	0x3e2194ef	0.1577947
188	0xbba80d3a	-0.00512853
189	0x3e07156e	0.13191769
190	0xbe199782	-0.14999202
191	0x3e0ee14d	0.13953133
192	0x3d3a95a0	0.04555285
193	0xbd54e237	-0.051973548
194	0x3d9b3a2f	0.07579457
195	0xbe046202	-0.12928012
196	0x3d42fd26	0.047604702
197	0xbc99ee26	-0.018790316
198	0xbc863ef9	-0.01638745
199	0xbbb8ac89	-0.005635802
200	0x3e18b42f	0.14912485
201	0x3cd7245f	0.02626246
202	0xbdfa5a21	-0.12224222
203	0x3d724ac1	0.059153322
204	0x3d240d56	0.04005178
205	0xbe2005ac	-0.15627164
206	0x3d66480a	0.056221046
207	0x3dd9c0eb	0.10632499
208	0xbd9fbf02	-0.07800104
209	0x3d6da4fe	0.058018677
210	0xbdfe50d8	-0.124177635
211	0xbe11a2e3	-0.14222293
212	0x3e2ca33b	0.16859142
213	0x3cc53208	0.024071708
214	0xbe34d16c	-0.17658013
215	0x3de8c5c7	0.11365848
216	0x3ce2f2b6	0.027703624
217	0xbdfa4833	-0.12220802
218	0xbd378c5c	-0.04481159
219	0xbd8a11e2	-0.06741692
220	0x3d972d1e	0.07381652
221	0x3c08c261	0.008347125
222	0x3d735b32	0.059413143
223	0xbdd2556f	-0.102702014
224	0x3da64ba5	0.08119897
225	0xbdc0af4a	-0.09408434
226	0xbc892e5d	-0.01674574
227	0xbe0276f0	-0.12740684
228	0xbd6cc121	-0.05780137
229	0x3d9af257	0.07565754
230	0xbe084b26	-0.13309917
231	0xbdcfdd80	-0.1014967
232	0xbd919ec9	-0.07110364
233	0x3dbc4b21	0.09194017
234	0x3d5e0fd6	0.05421432
235	0xbd3c63f9	-0.04599378
236	0xbde25f40	-0.11053324
237	0x391a118d	0.00014693123
238	0x3d84408e	0.06457625
239	0xbc03526f	-0.008015259
240	0xbe2162de	-0.15760371
241	0xbdb9a98d	-0.09065542
242	0xbda26620	-0.07929635
243	0x3cb19bb2	0.021680687
244	0xbd863909	-0.06553847
245	0xbd9420f1	-0.072328456
246	0x3e2182b5	0.15772517
247	0xbe29f94c	-0.16599005
248	0x3dcc5bc4	0.099784404
249	0x3bc5db32	0.006038093
250	0xbd176604	-0.036962524
251	0x3e04ddb5	0.129752
252	0x3e20cacf	0.15702365
253	0x3d755c44	0.059902444
254	0x3d0755e0	0.03304088
255	0x3de3b715	0.111189045

SFDNet/Conv_2/Conv2D f4 [32, 3, 3, 32]
0	0xb99b6ebf	-0.00029646416
1	0xbd31a344	-0.043368593
2	0xbcf61759	-0.03004043
3	0xbd9cb160	-0.07651019
4	0x3dc50c6d	0.09621511
5	0xbda9ca97	-0.08290594
6	0xbe353441	-0.17695715
7	0x3d7bc753	0.061469387
8	0x3dc4d2fa	0.09610553
9	0x3dc0165c	0.09379265
10	0x3bf914f7	0.007601376
11	0xbd4a25ef	-0.049352583
12	0x3d2be7ec	0.041969225
13	0x3a4e6b0c	0.00078742276
14	0x3dde01ae	0.10840164
15	0xbc963b16	-0.018338721
16	0xbdc55857	-0.0963599
17	0x3dcd6123	0.10028293
18	0x3ddb732d	0.107153274
19	0xbd48ca64	-0.04902114
20	0x3db8ad0c	0.09017381
21	0x3de19137	0.11014026
22	0xbca8d887	-0.02061106
23	0x3d5c00a1	0.053711537
24	0x3cc015b8	0.023447856
25	0xbde18500	-0.11011696
26	0xbc8521da	-0.016251493
27	0x3d97aaa0	0.07405591
28	0x3da61c91	0.08110917
29	0x3e2f23be	0.17103478
30	0x3dbb77a1	0.09153677
31	0x3d743ed0	0.059630215
32	0x3e2470b2	0.16058615
33	0xbd975e01	-0.07390977
34	0xbd47d881	-0.04879046
35	0xbd26d5a2	-0.04073108
36	0xbbff0b61	-0.007783339
37	0xbdcfb5f9	-0.101421304
38	0x3d822ffd	0.06356809
39	0x3d97f25e	0.07419275
40	0xbdc5963b	-0.09647795
41	0xbc95ccd7	-0.018286152
42	0x3d40b8eb	0.04705135
43	0xbddd5f64	-0.1080921
44	0x3df23c6a	0.11827929
45	0xbd8945f1	-0.067027934
46	0xbdcb6ac2	-0.09932472
47	0xbdb64611	-0.08900083
48	0xbe2eb3bc	-0.1706075
49	0xbde1230a	-0.10993011
50	0x3cab031c	0.020875506
51	0xbdccd5ea	-0.10001738
52	0xbd6f5927	-0.05843463
53	0x3d168f4d	0.036757756
54	0x3be6cbeb	0.007043352
55	0xbd629a0f	-0.055322703
56	0xbda7138b	-0.081580244
57	0x3d4dcc7f	0.05024385
58	0x3d11a72a	0.03555981
59	0x3db45d5d	0.0880687
60	0x3deacbcd	0.11464653
61	0x3daf0f1f	0.08547806
62	0x3c886bd7	0.016652985
63	0xbd0a090d	-0.033700038
64	0xbcd9f41b	-0.026605656
65	0x3db0df2c	0.08636317
66	0xbce07205	-0.027398119
67	0x3c8f9ef2	0.017531846
68	0xbda148cc	-0.07875213
69	0x3d843988	0.06456286
70	0xbc8ff1f0	-0.01757142
71	0x3b19cc2f	0.002346765
72	0x3d026c04	0.031841293
73	0x3d3ddcf4	0.046353295
74	0x3da11d29	0.0786689
75	0xbe15364c	-0.14571494
76	0x3d575e21	0.052580003
77	0x358bd234	1.0417484e-06
78	0xbdbac13a	-0.09118886
79	0x3d7aea88	0.061258823
80	0xbe4dc3b8	-0.20094192
81	0x3cc4942c	0.023996435
82	0x3d6428b7	0.05570289
83	0x3cca2a57	0.024678392
84	0xbe261176	-0.16217598
85	0xbdd76e86	-0.105191275
86	0xbdb832b3	-0.08994045
87	0x3c3c4631	0.011491344
88	0xbd2910b6	-0.041275702
89	0xbd255e2b	-0.04037301
90	0xbdcd35f0	-0.100200534
91	0x3e019e15	0.1265796
92	0xbd0dea7f	-0.03464746
93	0x3df106c7	0.11768871
94	0x3c83da19	0.016095208
95	0xbcbda4ca	-0.023149867
96	0x3ce87855	0.028377691
97	0xbcf505f8	-0.029910073
98	0xbdf63dda	-0.12023516
99	0xbdbe278e	-0.09284888
100	0x3d383bd3	0.044978928
101	0xbddbffc3	-0.10742142
102	0xbdaf89a8	-0.08571178
103	0x3de59600	0.11210251
104	0xbd4ac7f5	-0.0495071
105	0xbcb55845	-0.022136817
106	0x3d73433c	0.05939029
107	0x3d800754	0.06251398
108	0x3d5c569a	0.053793527
109	0xbdd1421a	-0.10217686
110	0xbd5f94bd	-0.054585207
111	0xbcea65d8	-0.028613016
112	0xbde2ab6a	-0.11067851
113	0xbd864949	-0.06556947
114	0x3bcffb99	0.0063471314
115	0xbd9576eb	-0.072980724
116	0x3de41ad9	0.11137933
117	0x3de1d900	0.110277176
118	0x3d23e079	0.040008996
119	0x3d827e33	0.06371727
120	0xbb571998	-0.0032821652
121	0xbda51777	-0.08061116
122	0x3d6e7a5d	0.058222163
123	0x3e205934	0.15659028
124	0x3c9fbb67	0.01949854
125	0x3e1cfcf7	0.15330873
126	0xbda53322	-0.080663934
127	0x3da7b37e	0.08188532
128	0xbc306a72	-0.010767566
129	0x3d48a3e2	0.048984416
130	0xbdbe6396	-0.09296338
131	0xbe56b52a	-0.20967546
132	0xbdc14f95	-0.09439007
133	0xbba6ddae	-0.0050923442
134	0x3c04934f	0.008091762
135	0x3e722e46	0.23650464
136	0xbb770848	-0.0037694145
137	0xbd6ba797	-0.057532873
138	0x3d220cad	0.03956287
139	0xbe0de976	-0.1385859
140	0x3cf6ad51	0.03011194
141	0xbd4f5024	-0.050613537
142	0xbc88625e	-0.016648468
143	0xbda2169d	-0.079144694
144	0xbe4a232a	-0.19739977
145	0x3d00bdb4	0.031430915
146	0x3dbe73a5	0.09299401
147	0x3acb1b86	0.0015495874
148	0x3cc02306	0.0234542
149	0x3d967e11	0.07348264
150	0xbc10943c	-0.008824404
151	0x3d1f3a3a	0.03887389
152	0xbdcb12b0	-0.09915674
153	0x3d495b3f	0.049159285
154	0x3d53132d	0.05153196
155	0x3d439f11	0.04775912
156	0x3d2df21d	0.042467225
157	0x3e255f1f	0.16149567
158	0x3c2ee232	0.010674046
159	0xbd26d973	-0.04073472
160	0x3d175858	0.036949486
161	0xbc7ddd88	-0.015494712
162	0xbbce419a	-0.0062944414
163	0xbcc1f840	-0.023677945
164	0xbe016f70	-0.12640166
165	0x3d0cd018	0.03437814
166	0x3a9d23c4	0.0011988808
167	0x3e414339	0.188733
168	0x3d3bf55b	0.045888286
169	0xbdc612eb	-0.09671577
170	0x3de58c28	0.11208373
171	0xbe2f461e	-0.17116591
172	0xbd6ebc31	-0.058284942
173	0xbd26cc62	-0.04072226
174	0xbd547d7c	-0.051877484
175	0x3cd0ea96	0.025502484
176	0xbd36b615	-0.04460724
177	0x3d6b913a	0.057511546
178	0x3d15aa48	0.036539346
179	0xbd660091	-0.056152884
180	0x3d26590a	0.040612258
181	0xbd85ffba	-0.065429166
182	0xbb097a7e	-0.0020977552
183	0xbcc430fd	-0.02394914
184	0xbdee039e	-0.11621784
185	0xbd8199a9	-0.063281365
186	0xbd822e83	-0.06356528
187	0x3e275de3	0.16344409
188	0xbc81a2eb	-0.015824756
189	0x3d9c348f	0.07627212
190	0x3cc1206f	0.023575036
191	0xbb8bfa3c	-0.0042717736
192	0xbcf0a7eb	-0.029376945
193	0x3dc3b611	0.09556211
194	0x3c63ee05	0.013911729
195	0xbcbb873a	-0.02289163
196	0x3ce2caf4	0.027684666
197	0x3d1da9e9	0.038492117
198	0xbce4dcf6	-0.027937394
199	0x3e6033bf	0.2189474
200	0xbd9e69f6	-0.07735054
201	0xbd680bbf	-0.056651827
202	0xbd205352	-0.03914196
203	0xbe1b8fcc	-0.15191573
204	0xbd4267d7	-0.04746231
205	0x3d6fe9a6	0.058572434
206	0x3d0f5733	0.03499527
207	0x3d71da79	0.059046242
208	0xbd52e97a	-0.05149219
209	0x3d05f288	0.032702
210	0x3d344bdb	0.044017654
211	0x3c60d282	0.013722064
212	0xbd2f8270	-0.042849004
213	0x3d87ce2f	0.06631123
214	0xbd11d064	-0.035599127
215	0x3c1f0e3d	0.0097079845
216	0x3ca255de	0.019816335
217	0xbcd2f689	-0.025752323
218	0xbd9d0010	-0.076660275
219	0x3c03072e	0.007997317
220	0x3e004a9f	0.12528466
221	0x3e6129bc	0.21988577
222	0x3c8837da	0.016628195
223	0xbd576a43	-0.052591573
224	0xbdff3a90	-0.12462342
225	0xbd1944f5	-0.03741928
226	0xbe153dc9	-0.1457435
227	0xbdd6e05d	-0.10492013
228	0xbd1670ba	-0.0367286
229	0xbd451170	-0.048112333
230	0xbd7bd6dd	-0.061484206
231	0x3d631fa2	0.05545009
232	0xbd0ef3a2	-0.034900315
233	0x3dbe0d7a	0.09279914
234	0xbcd6e3ad	-0.026231611
235	0xbd72ec22	-0.059307225
236	0xbd46d51f	-0.048543092
237	0x3a6c9e13	0.00090262404
238	0xbc8ed35f	-0.017434774
239	0xbd5b1ee4	-0.053496256
240	0xbdfad16e	-0.12246977
241	0xbdc0f533	-0.09421768
242	0xbd5d574f	-0.054038342
243	0x3d32785b	0.04357181
244	0x3d96fe89	0.073727675
245	0xbd118275	-0.035524804
246	0x3dbeaa40	0.09309816
247	0x3db06046	0.08612113
248	0xbd12a9ff	-0.035806652
249	0xbd04027b	-0.032228928
250	0xbd490e02	-0.049085625
251	0x3ce7f693	0.028315818
252	0x3c2a7759	0.010404431
253	0x3d826cb7	0.06368392
254	0xbce9194d	-0.028454447
255	0x3db2c4c1	0.08728934

SFDNet/Conv_3/Conv2D f4 [64, 3, 3, 32]
0	0x3e1f5a76	0.15561852
1	0xbd7d358a	-0.061818637
2	0x3c8774e7	0.016535236
3	0xbc83387d	-0.016018147
4	0xbc998055	-0.018737951
5	0xbe0ea866	-0.13931426
6	0x3e138965	0.1440788
7	0xbe0acfcf	-0.13555835
8	0xbd6b0c3b	-0.05738471
9	0x3d01ab49	0.03165749
10	0xbabcff5b	-0.0014419364
11	0x3d993815	0.074814
12	0x3e056e90	0.13030457
13	0x3d63e889	0.055641685
14	0xbcad0b78	-0.021123633
15	0xbe6e977a	-0.23299971
16	0xbceb8f72	-0.028754923
17	0x3cf35052	0.029701386
18	0x3d2ee129	0.0426952
19	0xbe4585e8	-0.19289362
20	0x3d155543	0.036458265
21	0x3e113609	0.14180769
22	0xbcbbec4b	-0.022939822
23	0xbe37501d	-0.17901655
24	0xbddb6da2	-0.1071427
25	0x3c048f5d	0.008090821
26	0x3d25f57d	0.04051732
27	0xbe19ca12	-0.1501849
28	0x3db9a51e	0.09064697
29	0xbd71eb77	-0.059062447
30	0xbd218943	-0.039437544
31	0x3da19969	0.07890589
32	0x3d76db07	0.060267475
33	0x3d16439d	0.036685575
34	0x3d089ed3	0.03335459
35	0xbc0f2642	-0.008737149
36	0xbdcaab1f	-0.0989592
37	0xbe030f38	-0.12798774
38	0x3d3fe57f	0.046849724
39	0xbe32188a	-0.17392173
40	0x3ce0b994	0.02743224
41	0x3df85f5c	0.12127563
42	0x3d4d6830	0.05014819
43	0xb82cb48c	-4.1176143e-05
44	0x3d987efb	0.074460946
45	0x3a10c795	0.0005522904
46	0x3d8df886	0.06932168
47	0x3c60466a	0.013688663
48	0xbdb08c85	-0.08620552
49	0x3dd5e13e	0.10443352
50	0x3d271b43	0.040797483
51	0xbe1af681	-0.15133096
52	0x3d629c8a	0.05532507
53	0x3d1e339f	0.03862345
54	0xbd0d1495	-0.034443457
55	0xbe0f23cd	-0.139785
56	0xbcd7c58d	-0.026339317
57	0x3d5f56e1	0.054526214
58	0x3bb185bc	0.0054175537
59	0xbd4719e8	-0.04860869
60	0x3e10ee00	0.1415329
61	0xbd914342	-0.070929065
62	0xbdce1934	-0.10063401
63	0x3d3672a2	0.044542916
64	0xbe16e8c2	-0.14737228
65	0x3d3972d1	0.045275513
66	0x3d8f5ff2	0.07000722
67	0x3dc3bcbc	0.095574826
68	0x3d299cb1	0.0414092
69	0xbd9c889d	-0.076432444
70	0xbdec7c83	-0.11547186
71	0xbe656eb7	-0.22405516
72	0x3d28c9c6	0.04120805
73	0x3d8ad358	0.06778592
74	0xbd44307f	-0.047897812
75	0xbc99b384	-0.018762358
76	0xbe1316dc	-0.14364189
77	0xbc07eded	-0.008296472
78	0xbd89c6f8	-0.067274034
79	0x3d905006	0.07046513
80	0xbd65eeea	-0.05613605
81	0x3d4d5682	0.05013133
82	0x3c116748	0.008874722
83	0xbddf74f0	-0.10910976
84	0x3d3536c1	0.04424167
85	0xbe0cf726	-0.13766155
86	0x3c25859a	0.010102654
87	0xbe15033f	-0.1455202
88	0xbdc712c9	-0.0972038
89	0x3d3bcedf	0.045851585
90	0x3d838eed	0.06423745
91	0xbc26b2c2	-0.010174455
92	0x3d56d591	0.052449767
93	0x3d467bb7	0.048457827
94	0xbc9502a9	-0.018189745
95	0xbdc0bd10	-0.09411061
96	0x3d424a89	0.047434364
97	0xbd90303b	-0.07040449
98	0x3d3be0cf	0.04586869
99	0xbe019246	-0.12653455
100	0xbc122dcc	-0.008922052
101	0xbe50f6ab	-0.20406596
102	0x3dda7a6d	0.10667882
103	0xbe335504	-0.175129
104	0xbdd75295	-0.10513798
105	0x3d736a22	0.059427388
106	0xbda864ed	-0.08222375
107	0x3da6c55a	0.081431106
108	0x3df68742	0.12037517
109	0x3c536eee	0.012904866
110	0x3c8036bd	0.015651101
111	0xbe898ba2	-0.26864344
112	0xbc66dd74	-0.0140908845
113	0x3ceabe81	0.028655292
114	0xbcf03020	-0.029319823
115	0xbe219d19	-0.15782584
116	0xbda36a7d	-0.079792954
117	0x3e63a91a	0.22232476
118	0xbd1b864f	-0.037969884
119	0xbe394d31	-0.18095852
120	0xbdeb4957	-0.11488598
121	0xbd9a8fb1	-0.07546938
122	0x3da3caf5	0.07997695
123	0xbe360fbf	-0.17779444
124	0x3d4a6e4b	0.04942159
125	0x3da37899	0.079819866
126	0xbaf2f587	-0.0018536308
127	0x3de54bc9	0.111960955
128	0x3d197fce	0.0374754
129	0xbd82152a	-0.06351693
130	0x3d17448e	0.036930613
131	0x3d890420	0.0669024
132	0xbda27860	-0.07933116
133	0xbe158134	-0.14600068
134	0xbd1becc3	-0.03806759
135	0xbe22c803	-0.15896611
136	0xbdbcac83	-0.092125915
137	0xbd154d2e	-0.036450557
138	0xbd0d1858	-0.034447044
139	0xbd11b9c0	-0.035577536
140	0x3d972352	0.07379784
141	0xbd758c8a	-0.05994848
142	0xbc6ac42c	-0.014328998
143	0xbb6dfc57	-0.0036313736
144	0xbcb231b6	-0.02175222
145	0x3d9cee34	0.07662621
146	0x3c83f5be	0.01610839
147	0xbde4197b	-0.111376725
148	0xbd0c5a16	-0.0342656
149	0x3b32d3ea	0.0027286955
150	0x3d8206f3	0.06348982
151	0xbe40f82a	-0.18844667
152	0xbd27a2c1	-0.0409267
153	0xbd73c802	-0.059516914
154	0x3d9241c2	0.071414486
155	0xbd9afe9e	-0.075680956
156	0x3db0b964	0.086291105
157	0xbd9814b5	-0.074258246
158	0xbe109961	-0.1412101
159	0x3cc30b91	0.023809226
160	0xbd0ed35b	-0.034869533
161	0xbcbdee37	-0.023184879
162	0x3d4feca1	0.050762776
163	0x3dc5d264	0.096592695
164	0x3ca95a1b	0.020672848
165	0xbdd124d8	-0.102121055
166	0xbd31226d	-0.04324572
167	0xbe013d1b	-0.12620966
168	0xbe0638fd	-0.13107677
169	0x3d84d4ba	0.06485887
170	0xbc3f931d	-0.011692789
171	0x3d2b8f5d	0.04188477
172	0xbde1fe42	-0.11034824
173	0x3c88bfaa	0.016692955
174	0xbd766789	-0.060157333
175	0x3d0ef894	0.03490503
176	0x3d901d85	0.070368804
177	0xbd6fc402	-0.058536537
178	0xbc20ded0	-0.009818748
179	0xbc6c1184	-0.014408473
180	0x3cc85867	0.024456216
181	0xbdd05b10	-0.10173619
182	0x3c2fe309	0.010735282
183	0xbc115280	-0.008869767
184	0x3e0bd47d	0.13655277
185	0x3cbd0be5	0.02307696
186	0x3dc11ffd	0.094299294
187	0x3d8327c1	0.06404067
188	0x3d792b6f	0.060832437
189	0xbcdb2484	-0.02675081
190	0xbd539c55	-0.05166276
191	0xbcdeac8e	-0.02718189
192	0xbda01fd5	-0.078185715
193	0xbcad53ca	-0.021158118
194	0x3e0bc645	0.13649853
195	0xbc65f36a	-0.014035085
196	0xbc9efecc	-0.019408606
197	0xbe74fc4c	-0.23924369
198	0x3cdc39f1	0.026883097
199	0xbe83ad11	-0.25717977
200	0x3cadfc2c	0.021238409
201	0xbdae9a69	-0.08525545
202	0x3df9bdc4	0.12194398
203	0x3be114ae	0.0068689203
204	0xbd84cae7	-0.06484013
205	0xbd00e891	-0.031471793
206	0x3d59a278	0.053133458
207	0xbe84a7d9	-0.25909308
208	0x3ceda37e	0.029008623
209	0xbc246665	-0.010034178
210	0x3d9af5dd	0.07566426
211	0xbdfc4548	-0.12317902
212	0xbdbd4d85	-0.09243301
213	0x3d414619	0.04718599
214	0x3d79e333	0.06100769
215	0xbe03e460	-0.12880087
216	0xbbdf784c	-0.0068197604
217	0xbd80f3a8	-0.06296474
218	0x3d6ceeed	0.057845045
219	0xbdad6b5c	-0.08467743
220	0x3dbba234	0.09161797
221	0xbd0b8f70	-0.03407234
222	0xbdd80db9	-0.105494924
223	0xbd63a8ed	-0.055581022
224	0xbd108d29	-0.03529087
225	0x3c2d687a	0.010583991
226	0x3db90d0e	0.09035693
227	0xbd714088	-0.058899432
228	0xbdd8dc9d	-0.10588954
229	0xbdaba49c	-0.08381006
230	0xbdaf3e7b	-0.08556839
231	0xbe03f8e7	-0.12887917
232	0x3cb33cc9	0.02187957
233	0x3daa489e	0.08314632
234	0xbd123f83	-0.0357051
235	0xbd043b79	-0.03228328
236	0xbae9aac5	-0.0017827383
237	0x3b982966	0.004643607
238	0xbd609636	-0.054830752
239	0xbe03736d	-0.12837
240	0xbd243ba1	-0.04009593
241	0x3d318382	0.043338306
242	0x3dd9ef9d	0.10641406
243	0xbdf430b8	-0.11923355
244	0xbdf97932	-0.12181319
245	0xbdc5dcc5	-0.09661249
246	0xbc82c237	-0.01596175
247	0xbda87bc5	-0.08226732
248	0xbd876328	-0.066107094
249	0xbd2e4ce2	-0.04255379
250	0x3cd75778	0.026286826
251	0xba76e57a	-0.000941835
252	0x3d51c0be	0.051209204
253	0x3bd4b332	0.0064910883
254	0x3d21890b	0.039437335
255	0x3d21b7fe	0.03948211

SFDNet/Conv_4/Conv2D f4 [64, 3, 3, 64]
0	0x3bd11864	0.0063810814
1	0x3c8104bc	0.015749328
2	0x3a1c825e	0.0005970354
3	0xbc69abc9	-0.014262148
4	0x3c298980	0.010347724
5	0x3d639659	0.055563305
6	0xbde7581b	-0.11296102
7	0x3c295084	0.010334138
8	0xbd0e7b54	-0.034785584
9	0xbdebfb1b	-0.11522504
10	0x3d540a35	0.051767547
11	0xbe215a36	-0.15757069
12	0xbcc3c58c	-0.023897909
13	0x3cef14fb	0.029184809
14	0x3e243fd1	0.16039969
15	0xbdce0845	-0.10060171
16	0x3dcf965a	0.10136099
17	0xbd90fd81	-0.07079602
18	0xbd9efe8c	-0.07763395
19	0xbdb8e262	-0.09027554
20	0x3bd33962	0.0064460495
21	0x3d80a499	0.062813945
22	0x3d4778aa	0.04869906
23	0xbda0f0e9	-0.0785845
24	0xbd0ccbfe	-0.03437423
25	0xba7d711a	-0.00096680375
26	0xbdded8fb	-0.108812295
27	0xbcadcb41	-0.021215083
28	0xbda63df7	-0.081172876
29	0x3c53b1fd	0.012920854
30	0x3bba343b	0.005682496
31	0xbd54f761	-0.05199373
32	0xbe0c8924	-0.1372419
33	0xbdba93e1	-0.09110237
34	0xbdd6a154	-0.1047999
35	0x3c67f5d3	0.01415773
36	0xbcddec01	-0.027090074
37	0xbdb9de5b	-0.09075614
38	0xbc516262	-0.012779804
39	0xbe49f7c6	-0.19723424
40	0x3d42374d	0.04741602
41	0xbc6feb5e	-0.014643518
42	0xbd849d2e	-0.06475292
43	0x3d2f1f53	0.042754482
44	0x3d0ca5a6	0.034337662
45	0xbce7f879	-0.028316723
46	0xbd2b1d8f	-0.041776236
47	0xbd99069f	-0.07471966
48	0xbd13ed19	-0.036114786
49	0xbb9aad0a	-0.004720335
50	0xbc8c04a4	-0.017092057
51	0xbd3597c0	-0.044334173
52	0x3d5a40b1	0.05328435
53	0xbc8eb13d	-0.017418498
54	0x3cff53c4	0.031167872
55	0x3db52eb5	0.08846799
56	0xbc9ee430	-0.019395918
57	0xbdc2c99e	-0.09511112
58	0xbcde220c	-0.027115844
59	0xbe2e2b4c	-0.17008704
60	0x3cfdc9fc	0.030980103
61	0xbd638b55	-0.0555528
62	0x3ce7fefa	0.028319824
63	0x3c72efe9	0.014827707
64	0x3d8b09c8	0.06788975
65	0xbd29968f	-0.04140335
66	0x3d0b05a4	0.033940926
67	0xbd193405	-0.037403125
68	0xbdeef721	-0.1166823
69	0xbbaa81d5	-0.0052034655
70	0xbe0f30aa	-0.13983408
71	0x3ccafb3e	0.024778005
72	0xbbb16dfe	-0.0054147234
73	0x3dd131a5	0.10214547
74	0x3d2f895d	0.04285561
75	0xbcc42399	-0.023942756
76	0xbccfac4e	-0.025350716
77	0xbbcda9bb	-0.006276337
78	0x3c87fb7e	0.016599413
79	0xbbfbfd58	-0.007690113
80	0xbd6bd18c	-0.057572886
81	0xbdbcb9cc	-0.092151254
82	0x3c2133f6	0.009839049
83	0xbd4370a5	-0.047714848
84	0x3d9a75bc	0.07541987
85	0x3d359ade	0.044337146
86	0x3e03c18e	0.12866804
87	0xbd788042	-0.06066919
88	0xbd42ca1f	-0.04755604
89	0x3e1bdf30	0.15221858
90	0xbd193bc2	-0.037410505
91	0x3e4739c1	0.19455625
92	0x3d27ea31	0.040994827
93	0x3dec50aa	0.11538823
94	0x3c82e24a	0.015977044
95	0xbd02908d	-0.031876136
96	0x3d7c01df	0.061525222
97	0xbda15406	-0.07877354
98	0xbc86f6f8	-0.016475186
99	0x3c2c3579	0.010510796
100	0x3ce64699	0.028109835
101	0xbc05ceb6	-0.0081669595
102	0xbd371b3c	-0.044703707
103	0xbe762d9e	-0.24040839
104	0x3b0c221a	0.002138263
105	0xbdbf9554	-0.09354654
106	0xbd7707c4	-0.06031014
107	0xbafcaac8	-0.0019276971
108	0xbd80edc1	-0.06295348
109	0xbd066fad	-0.032821346
110	0xbde51394	-0.11185375
111	0xbd547452	-0.051868744
112	0x3bccf4a2	0.0062547484
113	0x3d6abe65	0.05731048
114	0xbb8f8bba	-0.0043806704
115	0xbe098ef6	-0.13433442
116	0x3d8259f1	0.06364811
117	0xbdafcbd2	-0.085837975
118	0x3d769881	0.060204033
119	0x3b97f185	0.0046369457
120	0x3d8f35f9	0.06992716
121	0xbe11320c	-0.14179248
122	0x3d077cd0	0.033078015
123	0xbdc427f7	-0.09577935
124	0xbda7914d	-0.08182011
125	0x3e4c153c	0.19929975
126	0xbcd32dfb	-0.025778761
127	0x3d335720	0.04378426
128	0xbc2ff689	-0.010739931
129	0x3e2c2b6f	0.16813444
130	0x3a6b0eb9	0.00089667324
131	0xbdd90458	-0.10596532
132	0xbbe79b3a	-0.007068065
133	0x3c44ca5e	0.012011139
134	0xbcd43fd0	-0.025909334
135	0xbd79f6c6	-0.061026357
136	0xbe06fcd6	-0.13182387
137	0x3e32a268	0.17444766
138	0x3d25661d	0.040380586
139	0xbdf7e5ed	-0.12104402
140	0xbd40fe25	-0.04711737
141	0xbd37b72d	-0.044852424
142	0x3bf023ca	0.007328485
143	0x3ca1e86c	0.019764148
144	0x3e121842	0.14267066
145	0xbe3371e4	-0.17523915
146	0x3cd7a555	0.026323954
147	0xbe06b9df	-0.13156842
148	0x3cdb6e7f	0.026786087
149	0x3d9dd0a0	0.07705808
150	0xbd8fb557	-0.0701701
151	0x3dc69cb1	0.09697855
152	0x3d98bd5a	0.07457991
153	0x3e1137f0	0.14181495
154	0xbd62e86b	-0.055397432
155	0x3cb8fb2b	0.022580704
156	0xbdb7ae34	-0.089687735
157	0x3d68908d	0.05677848
158	0x3b0da46e	0.00216129
159	0xbdfc10a0	-0.123078585
160	0xbd32d4bb	-0.043659907
161	0xbc035371	-0.008015499
162	0xba8d64a7	-0.0010787443
163	0x3ccf11d3	0.025277054
164	0xbcf246bf	-0.02957475
165	0xbd2f5927	-0.04280963
166	0xbdef0dd9	-0.11672563
167	0xbe02aae4	-0.12760502
168	0xbd7c48f9	-0.06159303
169	0xbc637700	-0.013883352
170	0xbca032b5	-0.019555429
171	0xbd641604	-0.05568506
172	0xbda8c94e	-0.08241521
173	0x3d40d0dc	0.047074184
174	0xbd452cf1	-0.048138563
175	0xbccb8e4a	-0.024848122
176	0xbdc3d27c	-0.09561631
177	0x3d189f22	0.037261136
178	0x3cc97cc9	0.024595635
179	0x3cc89b42	0.024488095
180	0x3d21441f	0.039371606
181	0xbd0f5d9e	-0.03500139
182	0xbc1a575a	-0.00942024
183	0xbdb0f9cc	-0.08641395
184	0x3d30514d	0.043046284
185	0xbdfd5174	-0.123690516
186	0xbce9d918	-0.028545901
187	0xbe177e8e	-0.1479437
188	0xbca74540	-0.020418763
189	0x3d652f03	0.055953037
190	0x3c3472c9	0.011013695
191	0x3d6c56c2	0.057699926
192	0xbccb768c	-0.024836801
193	0x3e163851	0.1466992
194	0xbe1f46a4	-0.15554291
195	0x3cfa8a85	0.03058363
196	0x3dbe71fb	0.09299084
197	0x3d4353ae	0.047687225
198	0xbd80f6cc	-0.06297073
199	0x3cee31f1	0.029076548
200	0x3d050238	0.03247282
201	0x3da17a9a	0.078847125
202	0x3cab4341	0.020906093
203	0xbe36b50c	-0.17842501
204	0xbd554164	-0.052064314
205	0x3d06ddb8	0.03292629
206	0xbd2ee505	-0.04269888
207	0xbd826e62	-0.0636871
208	0x3b3aab38	0.0028483402
209	0xbd1f6eb2	-0.038923927
210	0xbd0fb693	-0.035086226
211	0x3b89c1e8	0.0042040236
212	0xbdc03c8d	-0.09386549
213	0x3d947ab8	0.07249969
214	0xbdcf59e0	-0.10124564
215	0x3cd8d458	0.02646844
216	0xbd169f8b	-0.036773246
217	0x3d37ec22	0.04490293
218	0x3c319394	0.010838408
219	0x3c4c60b5	0.012474229
220	0x3cdb4c84	0.026769884
221	0x3e33ddb8	0.17565048
222	0x3da348e7	0.079728894
223	0xbd3894bd	-0.045063723
224	0x3c6ef567	0.014584876
225	0x3cbdb61c	0.023158126
226	0xbdc378c8	-0.095445216
227	0xbd59f0cb	-0.053208154
228	0x3ba564e8	0.0050474294
229	0xbd988f38	-0.07449192
230	0xbc05abff	-0.008158683
231	0xbbfbf40b	-0.0076890043
232	0x3d5934e1	0.053028945
233	0xbd16e7b9	-0.03684208
234	0xbc5beb3e	-0.013422785
235	0xbd819928	-0.0632804
236	0xbc2d09a6	-0.010561382
237	0xbcfdf840	-0.031002164
238	0xbe02ef4e	-0.127866
239	0xbc3b5987	-0.011434919
240	0xbdd11065	-0.10208205
241	0xbd31db4c	-0.04342203
242	0xbd9335a0	-0.071879625
243	0xbc84bfb3	-0.01620469
244	0xbd5bc370	-0.05365318
245	0x3d8547c0	0.06507826
246	0xbdacc4fa	-0.08436008
247	0xbd50f879	-0.051018212
248	0xbdfb77a6	-0.122786805
249	0xbe05f6fd	-0.130825
250	0xbc778c5f	-0.015109151
251	0xbdff5515	-0.124674
252	0xbd9e3ee4	-0.07726839
253	0xbd4cd701	-0.05000973
254	0x3cf4fc8f	0.029905586
255	0x3db6886a	0.08912738
